saved_policies/policy.onnx (onnx, 153346 bytes, 8 tensors)

actor.0.weight f4 [256, 17]
-0.009275321 -0.0046893186 0.001402242 0.006501965 -0.03314267 0.015857784 0.20271048 0.011226231
-0.0134545695 -0.011131317 0.004269671 0.001886242 -0.0033156762 -0.000412972 -0.0004718793 7.375541e-05
0.00088432647 0.3499312 -1.071486 0.34960836 -2.521428 1.5726324 2.4032207 -0.46084964
0.33822423 0.2269368 -0.27144974 -0.89592457 0.24408837 0.868459 -0.15689157 -0.30530658
0.24579456 0.058313694 0.3909946 0.12726581 0.06234673 0.68443125 -0.76195747 -0.19445434
-0.8270317 0.6898356 0.49318707 0.30534777 -0.067443736 -0.20956063 -0.43630692 -0.066293456
0.0660022 -0.07999903 0.0066790846 -0.056016505 -3.319524 0.70512223 -0.35591868 0.36213604
-0.5165171 0.89649856 2.2562208 -0.14247975 -0.29156095 -0.24409181 4.377361 -1.5668396
0.041400846 0.07224958 0.035474133 0.02610905 -1.7473797 -0.3481798 1.9717544 -0.2622878
-0.79456186 0.27089873 -1.0824192 -0.70560765 -1.2175136 0.99992657 2.0671206 -0.020640664
-1.2166865 -0.07556204 -0.07790319 -0.12387965 -0.19965218 -0.039404847 -0.1589913 -0.09207459
0.36294487 0.05378014 -0.13121401 0.82921606 0.2776598 -0.13196674 -0.00801657 0.036453173
0.11828683 0.15314446 0.002897299 0.019024074 -0.031420372 0.007318595 0.09562613 -0.14530419
0.03555645 -0.3898654 -5.104219 -0.9666825 -0.4155105 -0.20774356 -0.10550185 0.003761461
0.023478877 -0.102260105 0.1941659 -0.06605131 -0.038064383 -0.32383856 -0.02404797 -0.054228794
0.325323 -1.1485229 1.6428255 0.96083015 0.9438313 0.7334318 -1.0235385 -0.05401469
0.58473384 -0.8351822 1.397547 1.0858672 0.097122386 0.31808883 -0.2133326 0.46451983
-0.57667524 -0.5431878 -0.5878015 1.2752616 -0.4980864 -1.2909057 -0.09770719 -0.6996095
-0.7740182 0.5417372 1.1459869 -1.1514099 0.9805039 0.15030149 -0.4471784 -1.249923
-0.32643527 -0.7300389 1.4839803 -0.19259964 0.58575106 0.40528813 0.10168179 -1.8010212
0.8172723 -0.19879515 0.40475643 0.38441092 -0.16208877 -0.011209559 -0.7105695 0.6991302
-0.27369723 -0.50320154 -0.011804079 -0.009466065 0.004232587 0.007699315 -0.04304765 0.006626497
0.31260327 0.014036401 -0.018152418 -0.014524779 0.0065281927 0.0036529065 -0.0027023184 -0.00056330085
0.0012591323 -7.924265e-05 -0.002041493 0.05138655 -0.026807712 0.014559761 0.041443758 0.16467805
-0.008674631 1.1730062 0.023767263 0.09151364 -0.05688326 -0.046095937 0.020226402 0.0032708172
0.00033052187 0.00056969846 0.006794956 -0.0017774414 -0.15848261 -0.6903675 -1.3367531 0.25929415
-0.71832764 0.80305535 2.489444 1.7142866 -0.6095905 0.046457432 -0.13164115 0.27389818
0.7066479 -0.43100208 -0.027610872 -0.714319 -0.33596256 0.2276974 0.079367675 -0.22840025
-1.4282141 2.2930617 1.0912391 0.28767645 -1.0104921 -0.47219354 0.19026603 -0.05120144
0.34861985 0.30148318 0.011918022 0.10742709 0.013217764 0.10139454 -0.12019578 -0.00073679065
0.15255065 -0.0036729046 -1.5308095 -0.97275734 0.15224586 -0.036912236 -0.015885614 -0.061216734
-0.0125483405 -0.087870196 -0.1599251 -0.013982903 -0.0026089181 0.018912755 0.010201354 0.050038487
00000000: 84f7 17bc dba8 99bb 6fcb b73a 700e d53b
00000010: 9cc0 07bd 2fe8 813c 5693 4f3e 3aee 373c
00000020: 8e70 5cbc 2160 36bc 99e8 8b3b c73b f73a
00000030: d14b 59bb 2a84 d8b9 9166 f7b9 22ad 9a38
00000040: 25d2 673a 2f2a b33e 7426 89bf deff b23e
00000050: 145f 21c0 054c c93f 5ece 1940 7cf4 ebbe
00000060: ba2b ad3e 1f62 683e 76fb 8abe 505b 65bf
00000070: 4df2 793e 5453 5e3f 2fa8 20be 2551 9cbe
00000080: 92b1 7b3e 57da 6e3d 7230 c83e f851 023e
00000090: 495f 7f3d e336 2f3f a50f 43bf 0a1f 47be
000000a0: 59b8 53bf 1199 303f 0483 fc3e 8b56 9c3e
000000b0: f11f 8abd 1097 56be 9f63 dfbe ddc4 87bd
000000c0: 292c 873d 88d6 a3bd 39dc da3b 9071 65bd
000000d0: 1573 54c0 e482 343f f93a b6be e569 b93e
000000e0: 773a 04bf ee80 653f ec65 1040 36e6 11be
000000f0: 7a47 95be 34f3 79be 5713 8c40 338e c8bf
00000100: ef93 293d 96f7 933d 534d 113d a5e2 d53c
00000110: 23aa dfbf 9f44 b2be 7362 fc3f 964a 86be
00000120: 6868 4bbf 3db3 8a3e b68c 8abf b4a2 34bf
00000130: 7cd7 9bbf 30fb 7f3f b44b 0440 9c16 a9bc
00000140: 62bc 9bbf 45c0 9abd b58b 9fbd 9db4 fdbd
00000150: 9f71 4cbe fa66 21bd 9ece 22be 9a91 bcbd
00000160: e9d3 b93e 9048 5c3d f75c 06be 8147 543f
00000170: 6d29 8e3e 4a22 07be ee57 03bc ec4f 153d
00000180: 5e40 f23d e7d1 1c3e 9ce0 3d3b 60d8 9b3c
00000190: a6b2 00bd d3d0 ef3b a2d7 c33d 9fca 14be
000001a0: a4a3 113d 709c c7be c355 a3c0 8178 77bf
000001b0: cbbd d4be baba 54be 5b11 d8bd d882 763b
000001c0: c656 c03c bf6d d1bd 6dd3 463e e945 87bd
000001d0: 66e9 1bbd 2bce a5be 4000 c5bc 031f 5ebd
000001e0: bc90 a63e cc02 93bf 1b48 d23f f7f8 753f
000001f0: ee9e 713f 30c2 3b3f 4f03 83bf 823e 5dbd
00000200: 1eb1 153f 80ce 55bf d2e2 b23f b2fd 8a3f
00000210: 1ae8 c63d 8adc a23e dc73 5abe 8bd5 ed3e
00000220: fda0 13bf 5b0e 0bbf 297a 16bf c63b a33f
00000230: 2e05 ffbe 663c a5bf b51a c8bd 9c19 33bf
00000240: 0f26 46bf 4aaf 0a3f b3af 923f 6661 93bf
00000250: 4e02 7b3f a2e8 193e 91f4 e4be 7afd 9fbf
00000260: 8622 a7be d4e3 3abf 11f3 bd3f d738 45be
00000270: c8f3 153f ed81 cf3e 8b3e d03d dd87 e6bf
00000280: c238 513f f590 4bbe 3c3c cf3e 82d1 c43e
00000290: 99fa 25be 4ca8 37bc e2e7 35bf 32fa 323f
000002a0: 0b22 8cbe d1d1 00bf e565 41bc 8e17 1bbc
000002b0: 83b1 8a3b 894a fc3b bc52 30bd 1623 d93b
000002c0: 890d a03e eff8 653c 61b4 94bc 57f9 6dbc
000002d0: 73ea d53b 9a65 6f3b 6119 31bb 7baa 13ba
000002e0: 7809 a53a 132f a6b8 92ca 05bb b47a 523d
000002f0: d99b dbbc 108c 6e3c eec0 293d 5da1 283e
00000300: 0a20 0ebc 1125 963f 90b3 c23c 816b bb3d
00000310: 6cfe 68bd 18cf 3cbd d7b1 a53c 355b 563b
00000320: e549 ad39 d157 153a 39a8 de3b 09f9 e8ba
00000330: 4449 22be edbb 30bf ba1a abbf 34c2 843e
00000340: 52e4 37bf 0995 4d3f 0d53 1f40 be6d db3f
00000350: 1f0e 1cbf 264a 3e3d f0cc 06be 623c 8c3e
00000360: e0e6 343f 4eac dcbe 3230 e2bc 9cdd 36bf
00000370: 4903 acbe 8229 693e 858b a23d c1e1 69be
00000380: b8cf b6bf 86c1 1240 b9ad 8b3f 544a 933e
00000390: ce57 81bf 5ac3 f1be 19d5 423e 9ab8 51bd
000003a0: 4d7e b23e 015c 9a3e cf43 433c bc02 dc3d
000003b0: 528f 583c f1a7 cf3d 3529 f6bd 2f25 41ba
000003c0: 3d36 1c3e 1db5 70bb 91f1 c3bf a006 79bf
000003d0: 57e6 1b3e 4931 17bd 8c22 82bc 66be 7abd
000003e0: 8e97 4dbc 4af5 b3bd 68c3 23be 8c18 65bc
000003f0: 62fa 2abb ecee 9a3c 9423 273c 28f5 4c3d

actor.0.bias f4 [256]
-0.02263002 0.0016082028 0.1046517 -0.45781803 1.7496183 0.050555088 -0.27022526 -1.9745587
0.028481426 -0.28051612 -0.037941534 -0.09935314 0.12478507 0.20558839 -0.1806347 0.16303143
0.0045032743 -0.17348379 0.02759459 -0.9677087 -0.098114856 1.070706 -0.6137505 -0.0038160689
0.15826371 -1.1234477 -0.8737327 0.068011366 -0.0028030665 0.17513908 -0.40544328 0.24675678
0.5821091 -1.2945894 0.11417694 -0.15722896 0.1852084 0.17955925 0.12122064 -1.478698
0.02734264 -0.07368959 0.31646904 -0.3368502 0.77545047 0.021206966 -0.7107646 -0.28957188
-0.17135926 -0.42541048 0.11683835 0.12767588 -3.0768085 -0.13401411 -0.2980568 -0.09344054
-0.27931353 0.11753094 -0.9990426 -0.3767104 -0.01621708 0.08310513 0.097049296 -1.9735866
-1.2450463 -0.9238374 -1.1868519 -0.090547614 -1.1936772 -0.060151465 -0.074134424 2.5936804
-0.18537095 0.13709272 -2.5283587 -1.4171646 -0.4206409 0.004717382 -1.2288283 -0.007160175
-0.08220097 0.024984218 -0.05914298 -0.09601308 0.54564667 -0.56650925 -0.20728704 -0.09361292
0.18342216 0.29072914 0.30687794 -0.31926522 0.5115146 -0.09125575 0.83400416 0.44593737
-0.57124126 0.013613733 -1.0786841 -0.21027397 -1.8427023 0.371821 0.06346794 0.034095813
-0.4087563 -1.3377277 1.1431434 0.055667013 -0.13964564 0.18606232 0.00790973 0.22888814
-0.06497932 0.12181163 0.12483852 -0.07664804 1.451669 0.19556351 -0.06919507 0.01436816
0.74099576 -0.11451354 -0.13375421 -0.18235673 -0.060267698 0.10634692 0.002196699 0.093880646
-0.032915328 0.02660274 -0.01453114 0.14803182 -0.013239612 0.6485864 0.68468773 -1.1415277
-1.1644721 0.07068101 -0.106812365 0.034122985 -0.16816644 -0.10583307 0.2807481 -0.40604296
-0.036540877 -1.5120223 -0.07386746 0.05266851 -0.62258786 0.12884784 1.2610279 -0.14141585
0.35276768 -0.67803556 0.014492333 0.30929628 -0.4051643 0.03377066 -0.41168675 -0.0026670014
-0.1323213 0.20174973 -0.58024365 -0.16689052 -0.5883034 -0.24190925 0.030853985 0.5201323
-0.113687225 -0.09557377 -0.14009084 -0.09464207 -0.031444535 -0.03591775 0.02350838 0.026063452
0.45448944 0.25038323 -0.045923587 1.5763109 0.21971379 0.10593512 -0.46330848 0.103429385
0.0703675 -1.1082921 -0.4958329 -0.1874688 -0.5927038 0.3607874 -0.12232863 0.22570229
0.10421131 0.0076863053 -0.43932942 -1.2846215 -0.023134952 -0.008840387 0.5764034 -1.4988643
-0.0029134876 1.5575325 -0.48685765 -0.03788419 0.019076398 -0.016411036 -1.3853165 0.45770806
-0.43507463 -3.801617 0.6837574 -0.71424407 -0.194984 0.21319343 0.017162114 -0.14385732
-0.3250737 -0.8322988 0.1402611 -0.035492577 0.027865574 -0.35390517 2.3482547 -0.07401294
-0.03825355 0.13377085 -0.43980286 0.21826322 -0.02096377 0.014033103 0.014273136 -0.1014047
-0.40404984 0.13095824 -1.1916704 -0.1479197 0.46234605 0.5546788 0.10477381 -0.011548795
-0.10505284 -0.68416363 0.0016318877 -0.59831715 -0.41824463 0.10650877 0.51138127 0.011726394
-0.07740868 0.15137446 -0.66682327 0.3331967 0.022207458 -0.26021788 -2.0908647 -1.0426241
00000000: 9762 b9bc 55ca d23a a153 d63d 2067 eabe
00000010: 7ef3 df3f da12 4f3d f75a 8abe 57be fcbf
00000020: e151 e93c cf9f 8fbe 9568 1bbd a979 cbbd
00000030: 518f ff3d c385 523e 4ef8 38be b6f1 263e
00000040: 3490 933b bca5 31be 0d0e e23c c2bb 77bf
00000050: 71f0 c8bd e50c 893f c11e 1dbf 0317 7abb
00000060: e20f 223e 22cd 8fbf f2ac 5fbf 8b49 8b3d
00000070: a7b3 37bb a957 333e 4396 cfbe cfad 7c3e
00000080: 1a05 153f 1bb5 a5bf 99d5 e93d a100 21be
00000090: 45a7 3d3e 61de 373e 8742 f83d fa45 bdbf
000000a0: acfd df3c 91ea 96bd 3b08 a23e a177 acbe
000000b0: ec83 463f 3bba ad3c abf4 35bf c442 94be
000000c0: cd78 2fbe 67cf d9be f248 ef3d 77bd 023e
000000d0: 6eea 44c0 ff3a 09be e79a 98be c15d bfbd
000000e0: 2f02 8fbe 10b4 f03d 41c1 7fbf 30e0 c0be
000000f0: afd9 84bc 0633 aa3d c8c1 c63d 7c9e fcbf
00000100: ad5d 9fbf 9c80 6cbf c3ea 97bf 0771 b9bd
00000110: 6aca 98bf 6261 76bd cad3 97bd dcfe 2540
00000120: e2d1 3dbe 0962 0c3e a1d0 21c0 a665 b5bf
00000130: 3e5e d7be 4594 9a3b 3f4a 9dbf e79f eabb
00000140: fb58 a8bd b4ab cc3c e93f 72bd 81a2 c4bd
00000150: 80af 0b3f c006 11bf 0e43 54be 21b8 bfbd
00000160: 05d3 3b3e 73da 943e 1b1f 9d3e bb76 a3be
00000170: 9ff2 023f 4be4 babd 4c81 553f e751 e43e
00000180: de3c 12bf 230c 5f3c 5212 8abf 0f52 57be
00000190: abdd ebbf 525f be3e 7bfb 813d 0da8 0b3d
000001a0: 8148 d1be a93a abbf 8652 923f 1803 643d
000001b0: 44ff 0ebe 1f87 3e3e d097 013c a761 6a3e
000001c0: e113 85bd 6078 f93d 57ab ff3d a6f9 9cbd
000001d0: 4ad0 b93f cd41 483e 25b6 8dbd 6e68 6b3c
000001e0: e6b1 3d3f 1386 eabd ddf6 08be b9bb 3abe
000001f0: 43db 76bd 6acc d93d 7ef6 0f3b 7f44 c03d
00000200: 39d2 06bd fded d93c 0514 6ebc a795 173e
00000210: f5ea 58bc c209 263f b247 2f3f 941d 92bf
00000220: 6c0d 95bf 35c1 903d 71c0 dabd 8bc4 0b3d
00000230: d333 2cbe 02bf d8bd 37be 8f3e dde4 cfbe
00000240: e3ab 15bd f289 c1bf d347 97bd efba 573d
00000250: eb61 1fbf b0f0 033e 5d69 a13f 51cf 10be
00000260: f79d b43e bd93 2dbf 4071 6d3c 155c 9e3e
00000270: b271 cfbe 1b53 0a3d 9bc8 d2be dcc8 2ebb
00000280: 3c7f 07be 7b97 4e3e d98a 14bf 59e5 2abe
00000290: 0d9b 16bf 0fb7 77be 7fc1 fc3c 6427 053f
000002a0: d9d4 e8bd 2ebc c3bd f973 0fbe b4d3 c1bd
000002b0: fccb 00bd 7e1e 13bd a594 c03c 0583 d53c
000002c0: d7b2 e83e 3b32 803e 5f1a 3cbd 8ec4 c93f
000002d0: a7fc 603e 83f4 d83d c536 edbe c9d2 d33d
000002e0: d61c 903d 84dc 8dbf cfdd fdbe d2f7 3fbe
000002f0: 70bb 17bf 20b9 b83e 6f87 fabd 801e 673e
00000300: bd6c d53d 67dd fb3b c9ef e0be 7a6e a4bf
00000310: 8385 bdbc 45d7 10bc 2c8f 133f c9da bfbf
00000320: 36f0 3ebb 3a5d c73f 6845 f9be 742c 1bbd
00000330: 1b46 9c3c 7070 86bc 0d52 b1bf b658 ea3e
00000340: 1ac2 debe b14d 73c0 ba0a 2f3f b3d8 36bf
00000350: e3a9 47be 614f 5a3e 9097 8c3c 554f 13be
00000360: 0f70 a6be 8911 55bf 9ba0 0f3e aa60 11bd
00000370: 5846 e43c 0f33 b5be ce49 1640 1994 97bd
00000380: c1af 1cbd 3afb 083e d72d e1be 6580 5f3e
00000390: 36bc abbc 1aeb 653c dfd9 693c 44ad cfbd
000003a0: 9fdf cebe eb19 063e a888 98bf 4378 17be
000003b0: 9fb8 ec3e 6eff 0d3f a793 d63d 2837 3dbc
000003c0: f225 d7bd 5925 2fbf 11e5 d53a 502b 19bf
000003d0: 2924 d6be 4521 da3d e2e9 023f 1020 403c
000003e0: 7188 9ebd e801 1b3e eeb4 2abf c298 aa3e
000003f0: 6aec b53c 473b 85be bad0 05c0 b574 85bf

actor.2.weight f4 [128, 256]
-0.017406156 0.008088048 -0.03765144 -0.030822534 -0.017574385 0.1734463 0.032695957 0.028470052
-0.0086157685 -0.01649231 0.0050271233 -0.03884415 -0.027396666 0.10122212 -0.01754349 0.10161217
0.022324044 -0.110032275 0.047881655 -0.03589622 0.07292911 -0.052992366 0.04584055 -0.030587167
0.062372137 0.0032026924 -0.07676847 0.072395824 -0.00036390504 0.080907725 -0.027303433 -0.046845175
0.015958386 -0.051965572 0.024097567 0.029917324 -0.0155449 -0.021492243 0.2019664 0.009753528
0.011046573 0.052417498 0.046262577 0.06724751 0.022514658 0.034504134 -0.02108389 0.01646188
0.1549779 -0.018716209 0.008434096 0.02309827 0.028217586 -0.04711243 0.20423447 -0.034261253
-0.052881196 0.106352426 -0.0016953672 0.03830702 0.19074236 0.036129817 -0.021193758 -0.010290829
-0.021280406 0.0017700174 -0.01840792 0.04287366 -0.026472246 0.07710052 -0.07591155 0.006294418
-0.10682318 0.0048523685 -0.09571129 0.030452734 -0.05452004 0.029107796 -0.0058637313 0.03662564
-0.02006632 0.027235536 -0.0081816595 -0.0122835515 0.0049196915 0.0018539395 0.07699263 -0.02470075
0.05733188 -0.16577828 0.101819195 -0.07874626 -0.03487445 -0.060441405 -0.018817058 -0.037114717
0.057260323 -0.008314692 0.008810176 0.050727483 0.0033465645 -0.060532615 0.038116522 -0.013453591
-0.005973967 -0.031132229 0.019766659 -0.010729356 0.09606731 0.0014956705 0.02113144 -0.008508823
-0.105873674 -0.006654831 0.12933856 -0.011933065 -0.060123555 0.21560246 -0.031000597 0.051350217
-0.017923532 -0.12400376 -0.0051906947 0.04636406 -0.0034623782 0.014360434 0.12197706 0.08546158
-0.00047781938 0.007155239 0.045721415 0.009824156 -4.639752e-05 -0.02276392 0.058237527 -0.04528756
-0.010580265 0.19795758 0.065614715 -0.1482073 0.009452663 -0.014569665 -0.005184062 -0.022553727
0.005988709 0.006257808 -0.031144055 0.04292823 -0.012110918 0.015011029 -0.005478602 -0.13067529
0.14883442 -0.0028732428 0.0041280002 -8.722179e-05 0.0670983 -0.07861572 0.018052507 0.14780106
0.04484665 0.19768165 0.037568316 0.040945284 0.075394176 0.033863865 0.014264421 -0.17270418
-0.04743647 -0.027977224 0.021259375 -0.19051477 0.19881356 -0.07953843 -0.06327838 0.020787144
-0.07271206 0.13071686 0.04725078 -0.04635782 0.119009994 -0.0704395 -0.0024425795 -0.16286856
-0.048708256 0.004536905 -0.0007033982 0.032686237 -0.009769338 0.06647315 -0.07625091 -0.011803481
-0.11433882 -0.062352408 -0.1252541 -0.007951854 -0.03496073 0.069462135 0.06332228 0.024285233
0.03460433 -0.036244437 -0.046533834 0.008098325 0.015082271 -0.18751472 0.027322795 0.07946355
-0.02017482 0.0031445127 0.027044972 0.009449161 0.16083612 -0.34186548 0.04946454 0.042195633
0.032211717 0.029580938 0.01840338 0.0071506775 -0.017933846 0.018370712 0.00010760488 -0.014172891
-0.018405708 0.014720204 0.01759916 0.13708915 -0.104476005 0.046949968 -0.03141694 -0.06000462
0.050791144 0.025177633 0.030412884 0.07173102 0.03418711 0.011948834 -0.01108808 0.20946115
0.01041516 -0.048275687 -0.002160417 0.02818464 -0.0018780547 -0.052055877 -0.0057925214 0.052824304
-0.033417754 0.0020996581 -0.002797837 -0.114285514 -0.020850416 -0.14955607 0.017943904 0.01198244
00000000: 5b97 8ebc bb83 043c 6538 1abd 8a7f fcbc
00000010: 28f8 8fbc e89b 313e 32ec 053d 073a e93c
00000020: 2729 0dbc e21a 87bc 91ba a43b 0b1b 1fbd
00000030: f96e e0bc 8b4d cf3d 5db7 8fbc 0b1a d03d
00000040: eae0 b63c 9a58 e1bd 8e1f 443d ea07 13bd
00000050: db5b 953d 860e 59bd 4dc3 3b3d f091 fabc
00000060: ed79 7f3d 43e4 513b ca38 9dbd 4344 943d
00000070: 82ca beb9 f3b2 a53d 73ab dfbc bae0 3fbd
00000080: 29bb 823c dad9 54bd 4368 c53c 2d15 f53c
00000090: 09b0 7ebc 8010 b0bc 48d0 4e3e 43cd 1f3c
000000a0: affc 343c bbb3 563d d47d 3d3d 10b9 893d
000000b0: a970 b83c 3554 0d3d 1fb8 acbc 11db 863c
000000c0: 87b2 1e3e bc52 99bc 2a2f 0a3c 9538 bd3c
000000d0: 9128 e73c f7f8 40bd d722 513e 8755 0cbd
000000e0: f499 58bd 4dcf d93d 1537 deba d2e7 1c3d
000000f0: f751 433e dcfc 133d 889e adbc de9a 28bc
00000100: 3f54 aebc eeff e73a 35cc 96bc 4a9c 2f3d
00000110: 53dc d8bc e1e6 9d3d 8477 9bbd 6841 ce3b
00000120: 1dc6 dabd 9e00 9f3b 4804 c4bd 0378 f93c
00000130: 6850 5fbd 7973 ee3c 8b24 c0bb c404 163d
00000140: 2062 a4bc 0f1d df3c 5e0c 06bc f340 49bc
00000150: 5d35 a13b e3ff f23a 50ae 9d3d 3a59 cabc
00000160: d5d4 6a3d c8c1 29be 9586 d03d b845 a1bd
00000170: 83d8 0ebd 6891 77bd 3b26 9abc 9a05 18bd
00000180: cd89 6a3d 593a 08bc 8e58 103c 9fc7 4f3d
00000190: 0952 5b3b 0cf1 77bd 1220 1c3d 736c 5cbc
000001a0: 44c1 c3bb 0409 ffbc b0ed a13c 2eca 2fbc
000001b0: f0be c43d 600a c43a d71b ad3c 9768 0bbc
000001c0: 4cd4 d8bd c510 dabb 5471 043e e782 43bc
000001d0: 1e44 76bd e4c6 5c3e f7f4 fdbc 9b54 523d
000001e0: 5fd4 92bc aff5 fdbd b416 aabb 3ee8 3d3d
000001f0: 11e9 62bb 0748 6b3c 1ccf f93d 7b06 af3d
00000200: d583 fab9 7f76 ea3b 6146 3b3d 7ff5 203c
00000210: f59a 42b8 667b babc 798a 6e3d 737f 39bd
00000220: d958 2dbc 64b5 4a3e 0261 863d a8c3 17be
00000230: 58df 1a3c 9bb5 6ebc 10df a9bb 98c2 b8bc
00000240: ef3c c43b 4c0e cd3b d121 ffbc 83d5 2f3d
00000250: df6c 46bc d2f0 753c d885 b3bb becf 05be
00000260: 0d68 183e 044d 3cbb 2d44 873b d8ea b6b8
00000270: d56a 893d 4701 a1bd dae2 933c 2959 173e
00000280: 1fb1 373d 0f6d 4a3e 3ce1 193d 3eb6 273d
00000290: 4368 9a3d d6b4 0a3d 51b5 693c 5dd9 30be
000002a0: be4c 42bd 7e30 e5bc 2428 ae3c 4e16 43be
000002b0: c895 4b3e 0be5 a2bd 1898 81bd cd49 aa3c
000002c0: 0fea 94bd a4da 053e 098a 413d b3e1 3dbd
000002d0: 83bb f33d 9642 90bd af13 20bb 04c7 26be
000002e0: 4f82 47bd 51aa 943b 4164 38ba 01e2 053d
000002f0: 930f 20bc 1323 883d 7029 9cbd 6363 41bc
00000300: 792a eabd 3d65 7fbd 9c42 00be 7e48 02bc
00000310: fb32 0fbd 2a42 8e3d 1daf 813d d3f1 c63c
00000320: 45bd 0d3d 0c75 14bd 439a 3ebd d6ae 043c
00000330: a11b 773c dc03 40be 0ed4 df3c c9bd a23d
00000340: aa45 a5bc 2b14 4e3b 6b8d dd3c a7d0 1a3c
00000350: 39b2 243e fe08 afbe 549b 4a3d 54d5 2c3d
00000360: 6ff0 033d b953 f23c afc2 963c 3b50 ea3b
00000370: 00ea 92bc 2d7e 963c eea9 e138 6a35 68bc
00000380: 91c7 96bc 032d 713c 1d2c 903c 1961 0c3e
00000390: 84f7 d5bd 9c4e 403d 0daf 00bd 68c7 75bd
000003a0: 600a 503d 5341 ce3c 7124 f93c b7e7 923d
000003b0: c807 0c3d 0bc5 433c c7aa 35bc fc7c 563e
000003c0: 59a4 2a3c babc 45bd c895 0dbb 79e3 e63c
000003d0: 0f29 f6ba 8b38 55bd 31cf bdbb 4c5e 583d
000003e0: 0ee1 08bd 6b9a 093b ea5b 37bb 860e eabd
000003f0: 7ece aabc 3a25 19be 18ff 923c ff51 443c

actor.2.bias f4 [128]
-0.008279957 0.13787131 -0.023198538 -0.02531485 -0.29629084 -0.1293767 0.51478964 -0.9318104
0.0043587997 0.34283113 0.25182468 0.095888816 0.13995244 0.05083836 -0.027859224 0.062192094
0.031117056 0.5060256 0.06963412 -0.69258 0.19157918 0.2851373 0.15661028 0.1447279
0.4124784 -0.32512626 -0.164176 -0.16701521 0.86752737 0.23920776 0.14956906 -0.102306075
-1.3951302 0.10147913 -0.8374153 -1.1408942 0.3966272 0.34765834 -0.59037924 -0.8083451
1.0691181 0.4639768 0.019173082 0.0020010544 -0.35989994 0.20289595 0.20658436 0.26487184
0.046559416 -0.15016806 -0.047331735 1.8541676 -0.08871077 -1.0264517 -0.9723835 -0.09122878
-0.0395133 -0.79753274 -0.023762556 -0.102314584 -0.3241186 0.0037414776 0.32095 0.10108738
-0.5769445 2.4263809 0.12021786 -0.013874016 -0.7453171 1.1892068 0.18404423 -0.77163124
-0.09137595 -0.38172653 -0.05902554 -0.118130244 0.075705476 -0.13628316 -0.22069359 0.017039852
-1.0480876 -0.4668088 0.034463305 -0.31884298 0.2897625 0.8702002 0.27051416 1.9754732
-0.7738332 -0.062661976 0.22999701 -0.011902472 -0.6752838 0.14033324 0.2556362 -0.28995934
0.73376894 0.70378274 0.09773872 -0.08109426 -0.10493353 0.1187665 -0.3083049 0.008953552
-0.018939393 -0.031272423 0.476885 1.885048 -0.17392854 -0.42514828 -0.110235 0.046193857
0.0028816946 -0.4034891 -0.018947342 -0.3029768 0.05390505 0.12070465 0.15833056 -0.0017123808
-0.12055289 0.94501346 1.8235903 -0.0014297853 -0.025408741 -0.10663238 -0.19864123 0.05704959
00000000: a8a8 07bc 232e 0d3e dc0a bebc 1761 cfbc
00000010: 6fb3 97be 537b 04be 41c9 033f 208b 6ebf
00000020: 43d4 8e3b 9087 af3e 2aef 803e 5b61 c43d
00000030: b14f 0f3e e23b 503d 0739 e4bc 23bd 7e3d
00000040: 32e9 fe3c e58a 013f 559c 8e3d ec4c 31bf
00000050: 552d 443e 84fd 913e 725e 203e 8d33 143e
00000060: 5e30 d33e f376 a6be c11d 28be 0906 2bbe
00000070: 4616 5e3f e1f2 743e a228 193e d985 d1bd
00000080: a093 b2bf 4ad4 cf3d d960 56bf d208 92bf
00000090: b812 cb3e 4600 b23e 1823 17bf b4ef 4ebf
000000a0: ddd8 883f 5e8e ed3e de10 9d3c 1f24 033b
000000b0: ce44 b8be f5c3 4f3e da8a 533e 489d 873e
000000c0: 16b5 3e3d a8c5 19be ecde 41bd 5d55 ed3f
000000d0: fead b5bd c562 83bf 20ee 78bf 28d6 babd
000000e0: b3d8 21bd 1b2b 4cbf b1a9 c2bc 4f8a d1bd
000000f0: e0f2 a5be 9433 753b 8f53 a43e e606 cf3d
00000100: a2b2 13bf d349 1b40 c834 f63d d74f 63bc
00000110: 1acd 3ebf ee37 983f 1776 3c3e a089 45bf
00000120: 5023 bbbd a971 c3be c4c4 71bd 45ee f1bd
00000130: 790b 9b3d d08d 0bbe 80fd 61be 2997 8b3c
00000140: bc27 86bf 9001 efbe 6529 0d3d 633f a3be
00000150: c05b 943e 71c5 5e3f d580 8a3e 4edc fc3f
00000160: ef19 46bf ec54 80bd 5684 6b3e 9602 43bc
00000170: 66df 2cbf 84b3 0f3e bfe2 823e 8d75 94be
00000180: 48d8 3b3f 1b2b 343f 3d2b c83d bf14 a6bd
00000190: 64e7 d6bd da3b f33d 24da 9dbe ebb1 123c
000001a0: c926 9bbc 8317 00bd 452a f43e 4149 f13f
000001b0: 531a 32be 09ad d9be e3c2 e1bd c535 3d3d
000001c0: d0da 3c3b 2096 cebe 7537 9bbc c61f 9bbe
000001d0: 8bcb 5c3d 0034 f73d 6821 223e f771 e0ba
000001e0: 6fe4 f6bd 67ec 713f 686b e93f a267 bbba
000001f0: fe25 d0bc 1462 dabd 9b68 4bbe d5ac 693d

actor.4.weight f4 [4, 128]
0.00095903536 -0.13946503 -0.0030069721 0.00025438724 -0.05619084 -0.7854938 0.12793478 0.19089404
-0.020864103 -0.668193 0.013429357 0.0038848314 0.08940753 0.0015127285 0.0011925393 0.00023782841
-0.06620173 0.08619025 0.00258797 -0.22248022 0.044652443 -0.13455498 -0.05261308 0.01849963
0.32446772 -0.22105739 -0.008009156 0.06405987 -0.089766204 0.10703405 -0.01764463 -0.0018868925
0.027341612 -0.18480103 0.035037484 -0.09607969 0.022983586 0.028876912 -0.04009126 -0.32009023
-0.04098723 0.09737274 -0.020488676 0.16541447 0.049530547 0.049017236 0.10028963 0.025789905
0.00063888554 -0.21028987 0.0029172357 0.013792413 0.017684368 0.056840952 -0.13481134 0.0010743836
0.0044501885 0.063278824 0.0002169011 0.09199076 -0.12621309 -0.2260334 -0.11243408 -0.10953684
-0.22709145 -0.2480782 0.09598383 -0.0013077172 0.19576009 -0.19131295 0.16095205 -0.09306557
-0.0014360488 -0.14026357 0.00016259484 0.0018694709 0.0028978116 -0.20635699 0.0058102845 0.0020436174
0.16319142 -0.06678073 -0.078190416 0.05417664 -0.027605398 0.14140001 0.20903756 0.17118828
-0.09427431 -0.016525425 -0.10097729 0.080457546 0.02973946 0.11982876 -0.2759746 0.1743519
0.080294006 -0.052928362 -0.0011608476 0.29442146 -0.003347642 0.25983518 -0.23768829 -6.875712e-05
-0.031019246 -0.020946847 0.3185551 0.18453275 0.08807758 0.09926429 -0.0029682475 0.0022593918
-3.2419157e-05 -0.13902429 -0.0018383506 0.03495091 0.0030496782 -0.13137908 0.11697906 0.028762745
0.009954556 0.24210787 -0.18786308 0.0014472842 -0.00096084975 0.0010381395 0.18030775 0.25588953
-0.00016940212 -0.13533236 0.002374677 -0.0048909835 -0.17117155 0.0459433 -0.06771171 -0.09993275
0.18655555 -0.050565585 0.11580624 -0.0034529164 -0.07817507 -0.0041936347 -0.0013132944 -0.0031346106
0.1949479 -0.20466402 -0.0014250752 -0.08467347 -0.55908793 0.29659843 -0.15074228 0.12599252
0.10536182 -0.26070878 0.8270433 0.20483434 0.1668797 -0.13093889 -0.0033663614 0.0025147798
0.07473733 0.18390088 0.15200412 -0.1584201 -0.10582428 0.28418043 0.08274969 0.11310517
0.012187948 0.012308171 0.16868804 -0.06950199 0.12942459 0.083111785 -0.15113686 0.09509198
0.002461041 0.13788828 0.0021912095 0.13170959 0.009803741 0.21637319 -0.18077236 -0.0046212934
-0.0065822727 -0.32353893 -0.004240088 0.107210495 -0.1127751 -0.014913682 -0.016199669 0.6700281
0.053950842 0.23569125 -0.1681974 -0.0005850035 -0.09242153 0.060231257 -0.05161897 0.022340765
-0.0027960239 -0.043472704 -0.0011690371 -0.002247881 -0.0051916614 0.07639797 0.008808768 -0.0026348745
-0.20607533 0.13112326 -0.1521623 -0.0063094716 -0.6549829 -0.08382989 0.07046514 0.23298898
-0.031210985 -0.15621364 0.0024643021 0.12833913 0.10752916 -0.123425595 0.11073025 -0.14947161
0.27972367 -0.066729635 -0.00018323518 -0.059071038 0.0039520506 -0.02301292 0.011978317 0.0027112353
0.11667506 0.086745836 0.14452106 -0.605276 0.10871207 -0.017004373 -0.0009154446 -0.00045438734
-0.004694104 0.12957792 -0.0029484432 -0.23033099 -0.002977712 0.068552956 0.023366855 0.011540684
0.05378455 -0.1442482 0.120352946 -0.00202789 -0.0002377521 0.00029798306 0.012449481 0.19370264
00000000: c667 7b3a eccf 0ebe 9f10 45bb 475f 8539
00000010: 5e28 66bd 1f16 49bf 5601 033e ba79 433e
00000020: 32eb aabc b20e 2bbf ce06 5c3c a898 7e3b
00000030: 4c1b b73d bf46 c63a fb4e 9c3a 9461 7939
00000040: c694 87bd 8484 b03d ef9a 293b dbd1 63be
00000050: 7be5 363d c8c8 09be d080 57bd 898c 973c
00000060: a220 a63e de5c 62be d638 03bc d231 833d
00000070: 58d7 b7bd ab34 db3d 798b 90bc 9b51 f7ba
00000080: 84fb df3c 7b3c 3dbe 7783 0f3d 6ec5 c4bd
00000090: 1348 bc3c 468f ec3c bc36 24bd dee2 a3be
000000a0: 3ae2 27bd 5c6b c73d ded7 a7bc 6962 293e
000000b0: 8be0 4a3d 4cc6 483d a664 cd3d 5a45 d33c
000000c0: e27a 273a 3a56 57be 182f 3f3b 93f9 613c
000000d0: cfde 903c 0fd2 683d fc0b 0abe 55d2 8c3a
000000e0: e3d2 913b 5498 813d f26f 6339 a765 bc3d
000000f0: 013e 01be 4d75 67be d743 e6bd da54 e0bd
00000100: a98a 68be 3608 7ebe 2c93 c43d b567 abba
00000110: 5575 483e 8be7 43be 9dd0 243e 2999 bebd
00000120: cd39 bcba 41a1 0fbe 387e 2a39 0909 f53a
00000130: 36e9 3d3b 3f4f 53be 3364 be3b 36ee 053b
00000140: a71b 273e 56c4 88bd 4c22 a0bd 53e8 5d3d
00000150: b724 e2bc 2acb 103e f10d 563e fb4b 2f3e
00000160: e412 c1bd 5460 87bc 2ecd cebd edc6 a43d
00000170: 2ba0 f33c c868 f53d 8b4c 8dbe 4e89 323e
00000180: 2f71 a43d 69cb 58bd 9527 98ba 69be 963e
00000190: 1d64 5bbb 1e09 853e 8f64 73be b331 90b8
000001a0: 131c febc b998 abbc a719 a33e 27f6 3c3e
000001b0: 0562 b43d 134b cb3d ee86 42bb 4e12 143b
000001c0: cef9 07b8 625c 0ebe cff4 f0ba af28 0f3d
000001d0: 1cdd 473b 3d88 06be b892 ef3d d99f eb3c
000001e0: 6f18 233c 20eb 773e 2e5f 40be cdb2 bd3a
000001f0: 89e1 7bba 2e12 883a 98a2 383e f403 833e
00000200: 89a1 31b9 9194 0abe 78a0 1b3b 8b44 a0bb
00000210: 9847 2fbe 0b2f 3c3d 70ac 8abd 8ba9 ccbd
00000220: 6b08 3f3e dc1d 4fbd d22b ed3d 534a 62bb
00000230: 401a a0bd c26a 89bb d922 acba 0a6e 4dbb
00000240: 6ca0 473e 7293 51be 97c9 baba 4969 adbd
00000250: 6320 0fbf c0db 973e 2f5c 1abe 2f04 013e
00000260: f0c7 d73d 9f7b 85be 1cb9 533f 18c0 513e
00000270: 83e2 2a3e d814 06be 2c9e 5cbb 01cf 243b
00000280: e30f 993d 8350 3c3e f8a6 1b3e e138 22be
00000290: 66ba d8bd 1980 913e ab78 a93d afa3 e73d
000002a0: f6af 473c 36a8 493c 8fbc 2c3e 0f57 8ebd
000002b0: e187 043e 8336 aa3d 9fc3 1abe 96bf c23d
000002c0: 6b49 213b 9632 0d3e 659a 0f3b e1de 063e
000002d0: df9f 203c ef90 5d3e 641c 39be 386e 97bb
000002e0: 1bb0 d7bb e5a6 a5be 70f0 8abb 2d91 db3d
000002f0: a2f6 e6bd 8458 74bc 2bb5 84bc f686 2b3f
00000300: 8ffb 5c3d 0c59 713e f03b 2cbe ec5a 19ba
00000310: 8047 bdbd 0db5 763d 6a6e 53bd fb03 b73c
00000320: 7f3d 37bb 6f10 32bd 603a 99ba 2f51 13bb
00000330: d01e aabb 8a76 9c3d a752 103c dcad 2cbb
00000340: 6905 53be 2d45 063e 6fd0 1bbe afbf cebb
00000350: f6ac 27bf 01af abbd 0750 903d aa94 6e3e
00000360: 2eae ffbc 78f6 1fbe 2180 213b 556b 033e
00000370: 4038 dc3d 8fc6 fcbd 8bc6 e23d 160f 19be
00000380: f137 8f3e 8ca9 88bd d222 40b9 79f4 71bd
00000390: 3480 813b 9785 bcbc b440 443c fbae 313b
000003a0: 55f3 ee3d cda7 b13d 54fd 133e 5ef3 1abf
000003b0: 6fa4 de3d c14c 8bbc 72fa 6fba d63a eeb9
000003c0: 00d1 99bb 13b0 043e ab3a 41bb e3db 6bbe
000003d0: b825 43bb 7e65 8c3d d96b bf3c 2315 3d3c
000003e0: 304d 5c3d cdb5 13be 9b7b f63d 59e6 04bb
000003f0: 184d 79b9 9c3a 9c39 e8f8 4b3c fc59 463e

actor.4.bias f4 [4]
-1.4192365 0.080587715 0.016893392 -0.35944957
00000000: 8ba9 b5bf 2c0b a53d 0364 8a3c c609 b8be

normalizer._mean f4 [1, 17]
0.0036370093 -0.0037629053 -0.004481316 0.009863907 0.007024927 -0.008742526 0.9846112 0.008834949
0.010003371 -0.03811115 0.0065733455 0.016027339 0.04045332 -0.15355583 0.15414138 -0.10004836
-0.1831067
00000000: e45a 6e3b 139b 76bb 01d8 92bb 399c 213c
00000010: 5c31 e63b d03c 0fbc 7b0f 7c3f 76c0 103c
00000020: 2ee5 233c 701a 1cbd 3865 d73b c44b 833c
00000030: 61b2 253d bd3d 1dbe 3dd7 1d3e 28e6 ccbd
00000040: 5380 3bbe

onnx::Div_20 f4 [1, 17]
0.107799776 0.11633273 0.13729525 0.13027528 0.12627389 0.12663168 0.123167485 0.08111548
0.06878519 0.0971568 0.23017682 0.23102175 0.08379568 0.7422364 0.75983256 0.7848434
0.743424
00000000: 21c6 dc3d db3f ee3d 2097 0c3e e266 053e
00000010: f14d 013e bcab 013e 3c3f fc3d df1f a63d
00000020: 40df 8c3d 25fa c63d 79b3 6b3e f790 6c3e
00000030: 129d ab3d 3403 3e3f 6384 423f 7feb 483f
00000040: 0951 3e3f
